best_results/model_500.pth (torch_old, 3230 bytes, 6 tensors)

linear_1.weight f4 [20, 2]
-0.63141745 -2.5105932 0.5941961 2.6348934 -0.5690569 1.696892 3.5001825e-31 -7.8273186e-33
-0.9865257 1.4970416 -0.6742316 -2.4276733 -0.36184984 -2.4834194 -0.32387823 1.4139863
-0.8096971 -1.8349776 0.763377 2.2239623 2.6751946e-33 4.178157e-33 -1.1765298 0.1137766
-5.0607157e-31 4.1892975e-36 1.5293766e-34 6.7238686e-36 0.6035133 2.6524367 0.31904402 3.0890448
0.058970362 -2.7272043 2.0994765e-30 2.6412498e-31 -0.6289608 -2.0883265 3.5318093e-28 1.6629476e-30
00000000: 93a4 21bf 8fad 20c0 3c1d 183f 18a2 2840
00000010: b7ad 11bf c233 d93f c22c e30c 2a91 228a
00000020: f38c 7cbf 0f9f bf3f 719a 2cbf 005f 1bc0
00000030: 6244 b9be 58f0 1ec0 5ed3 a5be 81fd b43f
00000040: 4f48 4fbf 8ce0 eabf ad6c 433f 6655 0e40
00000050: 193f 5e09 c98d ad09 8798 96bf b503 e93d
00000060: c83a 248d 6931 b204 fd49 4b07 3900 0f05
00000070: d97f 1a3f 86c1 2940 bd59 a33e e9b2 4540
00000080: e88a 713d 848a 2ec0 6c54 2a0e 4a6d ab0c
00000090: 9303 21bf 24a7 05c0 e2da df11 12ea 060e

linear_1.bias f4 [20]
-0.13402984 -0.24544834 -0.052168366 -5.2157244e-31 0.36388376 0.39976946 0.62626433 -0.11188933
0.4511315 0.29964444 -4.975732e-33 0.08325782 -8.0613945e-31 -9.586856e-35 0.6879279 -0.09848421
0.71183103 -8.163504e-30 0.077172846 -1.8735298e-27
00000000: 1e3f 09be cf56 7bbe 7fae 55bd 8b42 298d
00000010: f94e ba3e 95ae cc3e dc52 203f 3c26 e5bd
00000020: b5fa e63e ff6a 993e 0faf ce89 1383 aa3d
00000030: b9cd 828d c3dc fe86 0b1c 303f 17b2 c9bd
00000040: 8f3a 363f 5693 258f cc0c 9e3d b36f 1493

linear_2.weight f4 [20, 20]
-0.16008045 1.7135384 -0.31683362 -3.7784337e-33 0.758267 -0.4488904 -0.23755498 -0.7665452
-0.4847238 0.5051796 -2.1270979e-35 0.31950724 8.226484e-35 -4.640811e-36 0.25425518 1.5874926
0.22232142 2.300645e-30 0.021242796 -5.391195e-29 -0.34109572 -1.6870617 0.14536767 -1.7201573e-32
-0.1589743 0.11946473 0.20639303 0.25517797 0.37516254 -0.19784269 2.094206e-36 0.023932839
2.7213847e-34 2.3526986e-36 0.25733137 -1.3165759 -0.063859195 -1.611802e-30 -0.6443368 3.9236056e-29
-0.2639771 1.5824644e-36 0.43874556 1.583978e-32 0.3577842 0.098416954 -0.050967284 0.33077183
-0.08962991 -1.4998027 -5.1118175e-37 0.30225348 2.7439287e-34 3.19278e-36 -0.25170207 -9.340029e-14
-0.05240076 6.9188105e-32 -0.048917845 -3.089119e-29 4.5066633e-38 9.313314e-36 1.9725247e-37 -5.9423564e-36
-2.280765e-36 5.261789e-36 -9.2272576e-36 -9.237606e-37 -7.611674e-36 -7.982994e-36 5.9709233e-37 -5.767588e-39
4.4191617e-36 8.345729e-36 -5.979777e-36 -3.7572007e-36 -3.1633802e-37 7.115365e-37 -1.8708236e-36 -8.259253e-38
-0.33522418 1.9022355 0.5139248 8.693563e-33 0.8909172 -1.1734571 -0.24903035 0.47444612
-0.933333 0.4458178 -1.4580353e-35 0.39071083 -1.1637226e-35 -1.3352671e-36 0.33538878 1.8800462
-0.2874625 2.9360328e-30 0.37330154 -5.9525385e-29 0.015369401 -1.4572417 0.12632778 5.80026e-35
-0.7371058 0.6792902 0.4961624 0.44262 0.30498904 -0.19881201 7.06702e-36 -0.70940423
-1.2773953e-35 -4.925062e-38 0.07476793 -1.3389387 0.25348312 -5.119767e-30 -0.10813458 -3.521587e-31
0.3714922 1.996089 -0.47099972 6.143831e-32 -0.06348471 0.0033440227 0.1711529 -0.35159406
-0.12134619 0.11150471 1.701424e-34 0.08871077 -6.6131834e-34 1.4411169e-37 0.3011815 1.8201214
0.040746152 -4.609207e-31 0.56116706 -5.8196017e-30 -1.3976939e-35 -7.288528e-38 -1.3357031e-35 7.965917e-36
-1.5703056e-35 -1.8808921e-35 -2.5074474e-35 -2.278096e-36 -4.1736355e-35 3.347424e-36 -4.9578612e-37 -8.8253625e-36
2.3116589e-36 -1.7623086e-36 -4.1053498e-36 1.5005561e-35 -4.938928e-36 1.688591e-36 -9.2445255e-36 5.3854322e-36
0.061256737 1.9559091 0.521879 6.2965024e-33 0.64607185 -0.856777 -0.44826448 0.34155315
-0.5920726 0.6027341 -1.4881713e-35 0.6693438 5.3810744e-36 1.4035276e-36 0.32531485 2.006636
-0.30568725 1.9750097e-30 0.3137723 -3.6758212e-29 0.08735122 6.127389e-36 0.36668885 1.8982322e-32
0.077175744 -0.13645564 0.0077561466 0.5350756 -0.08366466 -0.108264685 2.7405812e-36 0.23161027
3.684012e-34 -6.820158e-36 -0.15943485 -4.7897462e-26 -0.12833333 2.4402395e-31 0.18349895 1.6001918e-29
-2.597575e-36 1.467238e-39 -1.0698647e-36 -4.7074907e-38 -1.0280718e-35 -1.3879292e-35 5.1253825e-38 5.335065e-36
4.3404903e-36 -3.716086e-36 1.2124056e-36 4.3493596e-36 8.793953e-37 -5.0951897e-36 2.8570263e-37 -2.2808145e-36
2.4607944e-38 -1.8557123e-36 -1.5682425e-36 -1.3332014e-35 1.3224703e-35 8.013358e-37 -1.1170326e-37 -8.753809e-37
-9.6561035e-36 -8.0697056e-36 -6.8415386e-37 -1.1720357e-36 3.8128993e-36 -1.0517025e-38 4.1166e-38 7.1759396e-36
2.185473e-36 1.4770559e-36 -8.23349e-36 1.715579e-35 -1.4245803e-35 3.9277974e-37 3.4630166e-38 1.5285951e-37
6.2383415e-36 -1.935384e-39 -1.3710258e-35 1.5251517e-37 4.2432763e-36 3.6424545e-38 -8.498631e-36 4.564489e-39
-2.1069536e-37 -4.1690244e-37 -6.8703e-37 4.5719333e-37 -1.0579026e-36 5.668786e-38 2.474561e-36 -8.566063e-37
00000000: 21ec 23be 3a55 db3f 0438 a2be 33f3 9c89
00000010: c91d 423f f6d4 e5be 9d41 73be 4e3c 44bf
00000020: b82d f8be 7353 013f 1d31 e285 7496 a33e
00000030: 8db2 da06 f565 c584 bc2d 823e f532 cb3f
00000040: 3aa8 633e 87a6 3a0e 5f05 ae3c dbae 8890
00000050: 19a4 aebe a3f1 d7bf 43db 143e a0a1 b28a
00000060: 29ca 22be eda9 f43d b258 533e b0a6 823e
00000070: 4e15 c03e 4697 4abe c527 3204 cd0e c43c
00000080: f6dd b407 3d25 4804 f0c0 833e 8f85 a8bf
00000090: 9cc8 82bd d1c3 028e 42f3 24bf 50f3 4610
000000a0: 0228 87be 069f 0604 42a3 e03e 5c7d a40a
000000b0: 7e2f b73e d48e c93d 12c3 50bd ed5a a93e
000000c0: e38f b7bd 89f9 bfbf 36f2 2d83 f8c0 9a3e
000000d0: 875d b607 4cce 8704 18df 80be 9a51 d2a9
000000e0: 2ea2 56bd 629f b30b 145e 48bd 0fa3 1c90
000000f0: b85d 7501 8112 4605 3a3e 8602 88c2 fc84
00000100: aa06 4284 cfcf df04 f83d 4485 732b 9d83
00000110: e5e1 2185 8ec7 2985 142e 4b03 b0cd 3e80
00000120: 69f8 bb04 787e 3105 015a fe84 4bd0 9f84
00000130: db49 d782 921f 7203 ee26 1f84 98d6 e081
00000140: 81a2 abbe 747c f33f 9390 033f e98e 340a
00000150: 2613 643f d833 96bf d001 7fbe 9aea f23e
00000160: e9ee 6ebf 3b42 e43e 7f0b 9b85 400b c83e
00000170: 167f 7785 162f e383 14b8 ab3e 5ba5 f03f
00000180: 492e 93be 0433 6e0e 6121 bf3e 2fea 9690
00000190: f1cf 7b3c e586 babf 125c 013e 8632 9a06
000001a0: f7b2 3cbf f6e5 2d3f 0009 fe3e 179f e23e
000001b0: 8627 9c3e 6095 4bbe 844c 1605 849b 35bf
000001c0: 02d6 8785 ac12 8681 ee1f 993d 5862 abbf
000001d0: 8ac8 813e b3ae cf8e aa75 ddbd 6690 e48c
000001e0: 3a34 be3e d87f ff3f e026 f1be c380 9f0b
000001f0: 4604 82bd 6427 5b3b b542 2f3e 2304 b4be
00000200: 5a84 f8bd 955c e43d 7528 6207 fead b53d
00000210: bec2 5b88 9827 4402 7634 9a3e bdf9 e83f
00000220: 70e5 263d cb93 158d a5a8 0f3f 3312 ec8e
00000230: d9a0 9485 a069 c681 4c09 8e85 946a 2905
00000240: c9fb a685 c102 c885 9b51 0586 8acc 4184
00000250: 95e8 5d86 3862 8e04 10b5 2883 d8b1 3b85
00000260: 79a7 4404 afeb 1584 4d9f ae84 0691 9f05
00000270: 2a14 d284 41a6 0f04 fc9b 4485 2a12 e504
00000280: 58e8 7a3d 3b5b fa3f dd99 053f f3c5 020a
00000290: f764 253f bd55 5bbf ec82 e5be 0ee0 ae3e
000002a0: 1292 17bf c84c 1a3f e03f 9e85 1e5a 2b3f
000002b0: b6e2 e404 40cc ee03 ab8f a63e b96c 0040
000002c0: 0a83 9cbe 593b 200e c3a6 a03e e362 3a90
000002d0: 32e5 b23d ae50 0205 a4be bb3e ab1f c50a
000002e0: 510e 9e3d 07bb 0bbe 4627 fe3b b7fa 083f
000002f0: 6158 abbd e0b9 ddbd 9324 6904 3e2b 6d3e
00000300: 37d8 f407 790c 1185 e442 23be 3f2d 6d95
00000310: d069 03be 6f61 9e0c 26e7 3b3e 5b47 a20f
00000320: 2dfa 5c84 10fa 0f00 2e07 b683 6c26 8081
00000330: 8ea5 5a85 0797 9385 b486 8b01 b7ed e204
00000340: c19f b804 9810 9e84 b647 ce03 5500 b904
00000350: 119f 9503 b4b9 d884 6b70 c202 be07 4284
00000360: 78fa 0501 d6dd 1d84 4c69 0584 32c5 8d85
00000370: 11a1 8c05 1957 8803 e80a 1882 37f0 9483
00000380: d45c 4d85 a89f 2b85 35ce 6883 5b69 c783
00000390: cc2e a204 3085 7280 0821 6001 889d 1805
000003a0: 63eb 3904 dc4e fb03 621b 2f85 816e b605
000003b0: c47c 9785 f1a7 0503 688b 3c01 c40f 5002
000003c0: c3ac 0405 1013 1580 dfca 9185 c897 4f02
000003d0: 307d b404 6850 4601 f3be 3485 f0b3 3100
000003e0: 4f64 8f82 53dd 0d83 c1c8 6983 2893 1b03
000003f0: 28fe b383 ac51 9a01 2b83 5204 77be 9183

linear_2.bias f4 [20]
0.20343031 0.21236317 -0.033727422 6.7127206e-36 0.19523482 0.056248188 0.113722526 -3.0536786e-35
0.121474 -0.19014388 -1.1973918e-37 1.581366e-37 -6.818303e-36 0.32388854 -5.0083417e-33 -3.011882e-36
0.20573072 0.12129744 5.5625652e-37 -1.5426585e-35
00000000: 0950 503e bb75 593e c425 0abd 87c3 0e05
00000010: a3eb 473e 8064 663d 5be7 e83d 855c 2286
00000020: 5cc7 f83d 14b5 42be 04fb 2282 903e 5702
00000030: 5f02 1185 b8d4 a53e d309 d089 7e1c 8084
00000040: 13ab 523e cb6a f83d c748 3d03 290b a485

linear_3.weight f4 [3, 20]
-0.24765348 -0.6897565 -0.60165256 3.1576796e-36 1.0624173 0.345126 0.54656166 -2.026056e-37
1.4628513 0.25445652 2.309953e-36 1.1555134e-37 -1.7644611e-35 0.4111421 3.2405573e-35 -3.5418386e-37
0.4786544 0.029805856 1.0519604e-35 -2.6785887e-36 0.7725849 -1.4622436 -0.36471307 5.7158485e-36
1.3224723 -2.8413162 0.55350375 4.251378e-37 1.2550858 -1.3992056 3.2256414e-36 -1.8688035e-37
-6.891075e-36 0.60980195 2.1636325e-36 1.3525023e-37 1.1736238 0.6346172 4.8031077e-36 -8.972728e-36
0.36661547 -0.1233084 -0.13272113 5.6170473e-37 1.2334616 -0.5894644 0.18450892 1.4128808e-35
1.2161044 -0.5021374 6.284797e-36 1.2345655e-35 6.5355764e-36 0.07662968 -1.6548308e-37 8.673076e-37
0.3576807 0.42263493 -4.2819932e-36 -3.0448332e-38
00000000: e098 7dbe e293 30bf e705 1abf 1650 8604
00000010: 4afd 873f 5bb4 b03e 77eb 0b3f e0e2 8982
00000020: b63e bb3f 2048 823e 5282 4404 c447 1d02
00000030: 33a1 bb85 3881 d23e 2e4c 2c06 880b f182
00000040: 3112 f53e 692b f43c 2cba 5f05 7fde 6384
00000050: 20c8 453f cc2a bbbf acbb babe 1420 f304
00000060: c646 a93f 20d8 35c0 6cb2 0d3f baaa 1003
00000070: a7a6 a03f 2b19 b3bf 2034 8904 4c5e 7e82
00000080: 958e 1285 fb1b 1c3f be0f 3804 d417 3802
00000090: 4e39 963f 4676 223f 364d cc04 2ed4 3e85
000000a0: 06b5 bb3e 1d89 fcbd 0ce8 07be 6223 3f03
000000b0: 12e2 9d3f 24e7 16bf e8ef 3c3e 463e 9605
000000c0: 4fa9 9b3f 148c 00bf b1a9 0505 1248 8305
000000d0: 10ff 0a05 06f0 9c3d 703e 6182 9390 9303
000000e0: ed21 b73e 9b63 d83e c722 b684 c8c6 2581

linear_3.bias f4 [3]
-0.03476157 0.10135196 -0.06190955
00000000: 2662 0ebd 9e91 cf3d de94 7dbd
